…
  value: <function constant_fn.<locals>.func at 0x7f307b46b7e0>
rollout_buffer:
  desc: null
  value: <stable_baselines3.common.buffers.DictRolloutBuffer object at 0x7f307b472d10>
policy:
  desc: null
  value: "MultiInputActorCriticPolicy(\n  (features_extractor): CombinedExtractor(\n\
    \    (extractors): ModuleDict(\n      (badges): Flatten(start_dim=1, end_dim=-1)\n\
    \      (events): Flatten(start_dim=1, end_dim=-1)\n      (health): Flatten(start_dim=1,\
    \ end_dim=-1)\n      (level): Flatten(start_dim=1, end_dim=-1)\n      (map): NatureCNN(\n\
    \        (cnn): Sequential(\n          (0): Conv2d(1, 32, kernel_size=(8, 8),\
    \ stride=(4, 4))\n          (1): ReLU()\n          (2): Conv2d(32, 64, kernel_size=(4,\
    \ 4), stride=(2, 2))\n          (3): ReLU()\n          (4): Conv2d(64, 64, kernel_size=(3,\
    \ 3), stride=(1, 1))\n          (5): ReLU()\n          (6): Flatten(start_dim=1,\
    \ end_dim=-1)\n        )\n        (linear): Sequential(\n          (0): Linear(in_features=256,\
    \ out_features=256, bias=True)\n          (1): ReLU()\n        )\n      )\n  \
    \    (recent_actions): Flatten(start_dim=1, end_dim=-1)\n      (screens): NatureCNN(\n\
    \        (cnn): Sequential(\n          (0): Conv2d(3, 32, kernel_size=(8, 8),\
    \ stride=(4, 4))\n          (1): ReLU()\n          (2): Conv2d(32, 64, kernel_size=(4,\
    \ 4), stride=(2, 2))\n          (3): ReLU()\n          (4): Conv2d(64, 64, kernel_size=(3,\
    \ 3), stride=(1, 1))\n          (5): ReLU()\n          (6): Flatten(start_dim=1,\
    \ end_dim=-1)\n        )\n        (linear): Sequential(\n          (0): Linear(in_features=1920,\
    \ out_features=256, bias=True)\n          (1): ReLU()\n        )\n      )\n  \
    \  )\n  )\n  (pi_features_extractor): CombinedExtractor(\n    (extractors): ModuleDict(\n\
    \      (badges): Flatten(start_dim=1, end_dim=-1)\n      (events): Flatten(start_dim=1,\
    \ end_dim=-1)\n      (health): Flatten(start_dim=1, end_dim=-1)\n      (level):\
    \ Flatten(start_dim=1, end_dim=-1)\n      (map): NatureCNN(\n        (cnn): Sequential(\n\
    \          (0): Conv2d(1, 32, kernel_size=(8, 8), stride=(4, 4))\n          (1):\
    \ ReLU()\n          (2): Conv2d(32, 64, kernel_size=(4, 4), stride=(2, 2))\n \
    \         (3): ReLU()\n          (4): Conv2d(64, 64, kernel_size=(3, 3), stride=(1,\
    \ 1))\n          (5): ReLU()\n          (6): Flatten(start_dim=1, end_dim=-1)\n\
    \        )\n        (linear): Sequential(\n          (0): Linear(in_features=256,\
    \ out_features=256, bias=True)\n          (1): ReLU()\n        )\n      )\n  \
    \    (recent_actions): Flatten(start_dim=1, end_dim=-1)\n      (screens): NatureCNN(\n\
    \        (cnn): Sequential(\n          (0): Conv2d(3, 32, kernel_size=(8, 8),\
    \ stride=(4, 4))\n          (1): ReLU()\n          (2): Conv2d(32, 64, kernel_size=(4,\
    \ 4), stride=(2, 2))\n          (3): ReLU()\n          (4): Conv2d(64, 64, kernel_size=(3,\
    \ 3), stride=(1, 1))\n          (5): ReLU()\n          (6): Flatten(start_dim=1,\
    \ end_dim=-1)\n        )\n        (linear): Sequential(\n          (0): Linear(in_features=1920,\
    \ out_features=256, bias=True)\n          (1): ReLU()\n        )\n      )\n  \
    \  )\n  )\n  (vf_features_extractor): CombinedExtractor(\n    (extractors): ModuleDict(\n\
    \      (badges): Flatten(start_dim=1, end_dim=-1)\n      (events): Flatten(start_dim=1,\
    \ end_dim=-1)\n      (health): Flatten(start_dim=1, end_dim=-1)\n      (level):\
    \ Flatten(start_dim=1, end_dim=-1)\n      (map): NatureCNN(\n        (cnn): Sequential(\n\
    \          (0): Conv2d(1, 32, kernel_size=(8, 8), stride=(4, 4))\n          (1):\
    \ ReLU()\n          (2): Conv2d(32, 64, kernel_size=(4, 4), stride=(2, 2))\n \
    \         (3): ReLU()\n          (4): Conv2d(64, 64, kernel_size=(3, 3), stride=(1,\
    \ 1))\n          (5): ReLU()\n          (6): Flatten(start_dim=1, end_dim=-1)\n\
    \        )\n        (linear): Sequential(\n          (0): Linear(in_features=256,\
    \ out_features=256, bias=True)\n          (1): ReLU()\n        )\n      )\n  \
    \    (recent_actions): Flatten(start_dim=1, end_dim=-1)\n      (screens): NatureCNN(\n\
    \        (cnn): Sequential(\n          (0): Conv2d(3, 32, kernel_size=(8, 8),\
    \ stride=(4, 4))\n          (1): ReLU()\n          (2): Conv2d(32, 64, kernel_size=(4,\
    \ 4), stride=(2, 2))\n          (3): ReLU()\n          (4): Conv2d(64, 64, kernel_size=(3,\
    \ 3), stride=(1, 1))\n          (5): ReLU()\n          (6): Flatten(start_dim=1,\
    \ end_dim=-1)\n        )\n        (linear): Sequential(\n          (0): Linear(in_features=1920,\
    \ out_features=256, bias=True)\n          (1): ReLU()\n        )\n      )\n  \
    \  )\n  )\n  (mlp_extractor): MlpExtractor(\n    (policy_net): Sequential(\n \
    \     (0): Linear(in_features=1950, out_features=64, bias=True)\n      (1): Tanh()\n\
    \      (2): Linear(in_features=64, out_features=64, bias=True)\n      (3): Tanh()\n\
    \    )\n    (value_net): Sequential(\n      (0): Linear(in_features=1950, out_features=64,\
    \ bias=True)\n      (1): Tanh()\n      (2): Linear(in_features=64, out_features=64,\
    \ bias=True)\n      (3): Tanh()\n    )\n  )\n  (action_net): Linear(in_features=64,\
    \ out_features=7, bias=True)\n  (value_net): Linear(in_features=64, out_features=1,\
    \ bias=True)\n)"
_logger:
  desc: null
  value: <stable_baselines3.common.logger.Logger object at 0x7f307b5d01d0>
